tests/resources/model_small_fp16.safetensors (safetensors, 898 bytes, 3 tensors)

e00f213d-3fda-4a00-8c7e-7283b06b0463.nn.C_0.co.weight f2 [1, 1, 4, 2]
0	0xab2d	-0.05606
1	0x3119	0.1593
2	0x29f1	0.04642
3	0x1d88	0.0054
4	0x2e75	0.1009
5	0x301b	0.1283
6	0x341e	0.2573
7	0x2c48	0.0669

e00f213d-3fda-4a00-8c7e-7283b06b0463.nn.O_1.lin.bias f2 [4]
0	0x3b5b	0.9194
1	0x3aa8	0.832
2	0x2c64	0.0686
3	0xbb94	-0.9473

e00f213d-3fda-4a00-8c7e-7283b06b0463.nn.O_1.lin.weight f2 [4, 1]
0	0x3669	0.4006
1	0xb790	-0.4727
2	0xada9	-0.08844
3	0xb1ba	-0.179
