tests/resources/model_small.safetensors (safetensors, 932 bytes, 3 tensors)

d006c519-31e8-4968-b150-57ff4b15a747.nn.C_0.co.weight f4 [1, 1, 4, 2]
00000000: 58a8 65bd 5a1b 233e 0028 3e3d 000f b13b
00000010: 28a2 ce3d 405e 033e e3b0 833e cc0a 893d
-0.05606875 0.15928403 0.046424866 0.0054033995 0.100895226 0.12828922 0.2572089 0.066915125

d006c519-31e8-4968-b150-57ff4b15a747.nn.O_1.lin.bias f4 [4]
00000000: ec5a 6b3f 48f4 543f e083 8c3d 2274 72bf
0.9193561 0.83185244 0.06861091 -0.94708455

d006c519-31e8-4968-b150-57ff4b15a747.nn.O_1.lin.weight f4 [4, 1]
00000000: ec1c cd3e 8408 f2be e015 b5bd d83d 37be
0.40061128 -0.47272122 -0.08842063 -0.17894685
