tests/resources/model_small_mixed.safetensors (safetensors, 914 bytes, 3 tensors)

711dd3ed-3608-40ce-a26b-6c13308a0fa5.nn.O_1.lin.bias f4 [4]
000000 ec 5a 6b 3f 48 f4 54 3f e0 83 8c 3d 22 74 72 bf
       0.9193561 0.83185244 0.06861091 -0.94708455

711dd3ed-3608-40ce-a26b-6c13308a0fa5.nn.O_1.lin.weight f4 [4, 1]
000000 ec 1c cd 3e 84 08 f2 be e0 15 b5 bd d8 3d 37 be
       0.40061128 -0.47272122 -0.08842063 -0.17894685

711dd3ed-3608-40ce-a26b-6c13308a0fa5.nn.C_0.co.weight f2 [1, 1, 4, 2]
000000 2d ab 19 31 f1 29 88 1d 75 2e 1b 30 1e 34 48 2c
       -0.05606 0.1593 0.04642 0.0054 0.1009 0.1283 0.2573 0.0669
